net_REINFORCE.pt (torch, 711960 bytes, 8 tensors)

weight f4 [512, 20]
0	0x3da5a221	0.08087564
1	0xbe2ff770	-0.17184234
2	0x3da7fb69	0.082022496
3	0x3e501375	0.20319922
4	0x3e38ba42	0.18039802
5	0xbdc66f41	-0.09689189
6	0x3dc2daa9	0.09514362
7	0x3deaee33	0.11471214
8	0xbe4f41a3	-0.20239882
9	0xbd3dd438	-0.046344966
10	0xbe4d742b	-0.20063846
11	0xbd0fe5fe	-0.035131447
12	0xbd9c0bf7	-0.076194696
13	0xbe3a92fd	-0.18220134
14	0xbe45f14b	-0.19330327
15	0x3be4ede4	0.0069863666
16	0xbe6969e1	-0.22794296
17	0x3d1e5d8b	0.03866343
18	0x3e4be182	0.19910243
19	0xbe14b6b2	-0.14522818
20	0x3e61f123	0.22064643
21	0xbd9736b8	-0.07383484
22	0xbdcb283e	-0.09919785
23	0xbe09a5fe	-0.13442227
24	0xbc3e163e	-0.011601983
25	0xbd8ff092	-0.07028307
26	0xbe4a842a	-0.19776979
27	0x3dcf40ab	0.10119756
28	0x3e14b4f1	0.14522149
29	0x3de8ace0	0.11361098
30	0xbe282d82	-0.1642361
31	0xbe203bd8	-0.15647829
32	0xbe202cc4	-0.15642077
33	0xbd34e7a7	-0.044166233
34	0x3df01059	0.11721868
35	0xbd068b46	-0.032847665
36	0xbda3ae54	-0.07992235
37	0x3c8c1483	0.017099624
38	0xbc93a2e2	-0.018022005
39	0xbd6c0742	-0.05762411
40	0xbdf4943c	-0.11942336
41	0xbdf11adf	-0.117727034
42	0xbe291955	-0.1651357
43	0x3e394278	0.18091762
44	0x3d2b7307	0.041857745
45	0xbca648b8	-0.020298347
46	0x3b65f988	0.003509136
47	0x3e10acae	0.14128372
48	0xbe2e4654	-0.17019016
49	0x3d4e113b	0.0503094
50	0xbd7d293e	-0.06180691
51	0xbe1e2f82	-0.1544781
52	0x3df33120	0.11874604
53	0x38b671ef	8.699658e-05
54	0xbe7dd053	-0.247865
55	0xbdae6a43	-0.085163616
56	0x3e7d0dd3	0.24712305
57	0x3e3cf785	0.18453796
58	0xbe30b43b	-0.17256252
59	0x3dd5e863	0.10444715
60	0xbe1bea2d	-0.1522605
61	0xbdc453ee	-0.09586321
62	0x3e10dc4c	0.14146537
63	0xbe49657b	-0.19667618
64	0xbd0a58e6	-0.033776186
65	0x3e351abb	0.17685978
66	0x3e601956	0.21884665
67	0x3e317637	0.17330252
68	0x3de1c7db	0.110244475
69	0xbdd6334d	-0.104590036
70	0x3d0a8b20	0.033824086
71	0x3dfc3ffe	0.12316893
72	0x3da5992f	0.08085858
73	0xbe2251ff	-0.15851592
74	0x3e154d4a	0.14580265
75	0xbe56f892	-0.2099326
76	0x3db3d9ee	0.08781801
77	0xbce546c0	-0.027987838
78	0xbdac7b99	-0.08422012
79	0x3e63b715	0.22237809
80	0x3e8189df	0.253005
81	0x3e6edee1	0.23327209
82	0xbe2598ac	-0.16171521
83	0xbd8d72af	-0.0690664
84	0x3d34d281	0.044146065
85	0xbd1e515b	-0.038651805
86	0xbe3af588	-0.18257725
87	0xbe43e221	-0.1912923
88	0xbdf0edd8	-0.11764115
89	0xbe090ef7	-0.13384615
90	0xbdaea4a6	-0.08527498
91	0xbd3b429a	-0.045717813
92	0x3b87a40e	0.00413943
93	0xbe14d57c	-0.14534563
94	0xbca394e4	-0.019968458
95	0xbd01dfd2	-0.031707592
96	0xbe15767b	-0.14595978
97	0x3e5be6ee	0.21474811
98	0x3dc36f2a	0.09542687
99	0xbde070ff	-0.10959052
100	0xbcbbcf2c	-0.022925936
101	0xbddad0ad	-0.10684333
102	0x3e2c05b5	0.16799052
103	0x3e2a0947	0.16605102
104	0xbc32bf51	-0.010909871
105	0xbde24898	-0.110490024
106	0x3c8b3923	0.016995018
107	0x3dd8bb1b	0.105825625
108	0x3becff23	0.007232563
109	0xbb4f5a81	-0.0031639638
110	0x3db47269	0.088108845
111	0x3d375bc3	0.044765245
112	0xbe53c0fb	-0.20679085
113	0xbcec4449	-0.028841155
114	0x3de6dbda	0.11272402
115	0x3cd40903	0.025883203
116	0x3d3335bf	0.04375243
117	0x3e28c7c4	0.16482455
118	0xbe1548f8	-0.14578617
119	0x3e096149	0.13416018
120	0xbd88f634	-0.066875845
121	0x3e0a4bc0	0.13505459
122	0xbe6a242d	-0.22865362
123	0x3d701a1c	0.05861865
124	0x3d89b5a3	0.067240976
125	0xbc526906	-0.012842422
126	0x3e058cac	0.13041943
127	0x3c443e7d	0.011977789
128	0x3e056dbb	0.1303014
129	0x3d8edba9	0.069754906
130	0xbc913234	-0.017724134
131	0x3e23d6b4	0.15999871
132	0xbd317546	-0.04332473
133	0x3e14f34c	0.14545935
134	0xbd9ea50c	-0.07746324
135	0x3dc03170	0.093844295
136	0xbe40756d	-0.18794794
137	0xbe6c2981	-0.23062707
138	0xbe1155ab	-0.14192836
139	0xbe9b5c96	-0.30344075
140	0x3da90515	0.082529224
141	0xbd3e60f8	-0.046479195
142	0x3da06289	0.07831294
143	0x3a23e0f4	0.0006251477
144	0xbe3df78f	-0.18551467
145	0xbc663e17	-0.014052889
146	0x3dcb10c9	0.09915311
147	0x3d1b99f2	0.03798861
148	0x3cf669ed	0.030079806
149	0xbcf8e0aa	-0.030380566
150	0x3da4cacf	0.08046495
151	0xbd521756	-0.051291786
152	0xbe87667e	-0.26445383
153	0xbe0a492c	-0.13504475
154	0xbe0ef9fa	-0.13962546
155	0x3d2f7abe	0.042841665
156	0xbe189310	-0.1489985
157	0xbd38dbb5	-0.045131404
158	0xbe668637	-0.22512136
159	0xbdec0ffd	-0.11526487
160	0x3c9d6c29	0.019216614
161	0xbe283428	-0.16426146
162	0x3d622ae2	0.055216677
163	0x3d7c66c7	0.061621454
164	0xbe0b32b4	-0.1359356
165	0xbb1c8b6f	-0.002388682
166	0x3d067b9c	0.032832727
167	0x3e447657	0.19185768
168	0x3e6365f7	0.22206865
169	0xbd16ad6a	-0.036786474
170	0xbddf5477	-0.10904782
171	0xbdb01af4	-0.08598891
172	0x3dda543a	0.10660596
173	0x3dd892a6	0.10574846
174	0x3e2021d1	0.156379
175	0x3e8a6396	0.27029103
176	0xbe28cc76	-0.16484246
177	0xbe4e4350	-0.20142865
178	0xbe5d6cb2	-0.21623495
179	0x3d373636	0.044729434
180	0xbe2939f4	-0.16526014
181	0x3e19d8d3	0.15024118
182	0x3ca7cd0e	0.02048352
183	0x3e244be2	0.16044572
184	0x3e557f19	0.20849265
185	0xbdfd1690	-0.12357819
186	0x3e23bb7d	0.1598949
187	0x3e1ecbbe	0.15507409
188	0x3cba964a	0.022776742
189	0xbe643ffe	-0.22290036
190	0xbc3da432	-0.011574792
191	0x3e3e0a94	0.18558723
192	0x3d32ad09	0.04362205
193	0xbd59fdf3	-0.0532207
194	0x3e3e3881	0.18576242
195	0x3b9d833e	0.004806905
196	0xbe483cc8	-0.19554436
197	0xbe805674	-0.25065958
198	0x3e4f77a1	0.20260479
199	0x3dddadc4	0.10824159
200	0xbe0a56d2	-0.13509682
201	0x3dcd1098	0.10012931
202	0xbbf41da1	-0.007449821
203	0xbdaeb75f	-0.08531069
204	0x3e2a6e21	0.16643573
205	0xbd83ddeb	-0.06438812
206	0x3d8a340a	0.06748207
207	0x3d0def99	0.034652326
208	0xbc0ac3c2	-0.008469524
209	0xbd8dd12a	-0.069246605
210	0xbe0aab60	-0.13541937
211	0xbdc9ae6e	-0.09847723
212	0xbdff0cae	-0.1245359
213	0xbdfb5069	-0.122711964
214	0x3e85bf89	0.26122692
215	0x3e61a848	0.2203685
216	0xbe3802f1	-0.17969872
217	0xbddbc327	-0.10730582
218	0x3e440c5a	0.19145337
219	0xbe005a96	-0.12534556
220	0x3dcc2780	0.099684715
221	0x3d52afd3	0.05143721
222	0x3e327c90	0.1743033
223	0x3b529dd3	0.0032137528
224	0xbdc7992e	-0.097460136
225	0xbe71d25e	-0.23615405
226	0x3d79dc05	0.061000843
227	0x3da916cd	0.08256302
228	0xbe05294e	-0.13004038
229	0x3d761b33	0.060084533
230	0x3dbccf3f	0.092192166
231	0xbe09c426	-0.13453731
232	0xbe1ea387	-0.15492068
233	0x3d8587ee	0.06520067
234	0x3e3567dc	0.177154
235	0xbc8b7bf6	-0.017026883
236	0xbdffe4ca	-0.1249481
237	0x3db028f0	0.08601558
238	0x3de86fc5	0.11349443
239	0xbe1e458a	-0.15456215
240	0xbd9398ac	-0.07206854
241	0xbe0b9d20	-0.13634157
242	0x3d964c74	0.07338801
243	0x3e011731	0.12606503
244	0xbdae4b26	-0.08510427
245	0x3d56ad95	0.052411634
246	0x3d7cb89e	0.061699502
247	0xbddde819	-0.10835285
248	0x3dff64e0	0.12470412
249	0xbd1c32f4	-0.03813453
250	0x3e193086	0.14959916
251	0x3de272e0	0.11057067
252	0x3aab106f	0.0013051162
253	0xbe1c6301	-0.15272142
254	0x3eba6bdb	0.36410412
255	0xbdaa8853	-0.08326783

bias f4 [512]
0	0x3e19c635	0.15017016
1	0x3df7b520	0.12095094
2	0x3d4e0bb1	0.05030412
3	0xbda1d68c	-0.0790225
4	0x3e4e4782	0.20144466
5	0xbdae8b7b	-0.085226975
6	0x3e05b123	0.13055854
7	0xbe3d2fcd	-0.18475266
8	0xbe4aeebe	-0.19817635
9	0x3e0c0c1b	0.13676493
10	0x3b6114c9	0.0034344664
11	0xbe43e354	-0.19129688
12	0xbe5e7630	-0.21724772
13	0x3dc1adb5	0.0945696
14	0xbde067f2	-0.10957326
15	0x3e297fd2	0.16552666
16	0x3d924090	0.071412206
17	0xbd11cdf2	-0.035596795
18	0xbd9a727b	-0.07541367
19	0x3e46753b	0.19380657
20	0x3d74fc02	0.059810646
21	0xbd48a801	-0.048988346
22	0xbd16d41b	-0.036823373
23	0x3dc841fa	0.09778209
24	0xbe5638d9	-0.20920123
25	0x3e5e3e54	0.21703464
26	0xbe0a34f2	-0.1349676
27	0x3e3f06a1	0.18654872
28	0x3e3fdc09	0.1873628
29	0xbcf80381	-0.030275108
30	0xbce12fe2	-0.027488653
31	0xbd09406f	-0.033508714
32	0xbde6b93a	-0.11265798
33	0x3bb13ba0	0.005408719
34	0x3e4158e1	0.18881561
35	0x3dd2f3db	0.10300418
36	0x3e20ab70	0.15690398
37	0xbe5ec9f0	-0.2175672
38	0x3dc7ef54	0.09762445
39	0x3e1905f4	0.14943677
40	0xbca192ea	-0.019723374
41	0xbdaaf760	-0.08347964
42	0x3e415ef8	0.18883884
43	0x3c0c92c0	0.00857991
44	0xbcc678e5	-0.024227569
45	0xbdaea81e	-0.085281596
46	0xbe05f3e7	-0.13081323
47	0x3e3b6b43	0.18302636
48	0x3d9c7aac	0.07640585
49	0x3d56cb2d	0.052439857
50	0xbe554c72	-0.20829943
51	0xbc2b56be	-0.010457693
52	0xbd341068	-0.04396096
53	0xbcdc4150	-0.026886612
54	0xbcdd428d	-0.027009273
55	0xbd59db14	-0.053187445
56	0x3d0beb1c	0.034159765
57	0xbd8a7cc4	-0.067620784
58	0xbdadd129	-0.0848716
59	0xbe722a3a	-0.2364892
60	0x3e6ed244	0.23322397
61	0xbe26fcc5	-0.16307361
62	0x3e278d4d	0.16362496
63	0x3e08f783	0.13375668
64	0xbdb73249	-0.08945138
65	0x3e12513c	0.14288801
66	0x3c290885	0.010316973
67	0x3e261d10	0.16222024
68	0xbe3ea207	-0.18616496
69	0xbd95f169	-0.07321436
70	0x3d0ad9b5	0.033899028
71	0xbcd74dc2	-0.026282195
72	0xbe51fc26	-0.20506343
73	0x3dba9e65	0.091122426
74	0xbd065d0b	-0.032803576
75	0x3e3843b9	0.17994584
76	0x3e1af771	0.15133454
77	0xb9c268c8	-0.00037080632
78	0x3e6bfd4d	0.23045845
79	0xbdce3175	-0.10068027
80	0xbde87cbc	-0.11351916
81	0xbe7503dd	-0.23927255
82	0xbe418cc7	-0.18901359
83	0xbcf36086	-0.029709112
84	0xbe014a1b	-0.12625925
85	0x3d113f58	0.0354608
86	0xbd0e9323	-0.03480829
87	0xbe18473e	-0.14870927
88	0x3d73037f	0.059329506
89	0xbe36d490	-0.17854524
90	0xbe3eb296	-0.18622813
91	0x3deccaf0	0.11562145
92	0x3d8ef20b	0.0697976
93	0xbe203912	-0.1564677
94	0x3da80ac4	0.082051784
95	0xbe3f80ff	-0.18701552
96	0xbdad3358	-0.08457059
97	0x3e5bf5a3	0.21480422
98	0xbdfabc36	-0.1224293
99	0xbdd415b1	-0.103557
100	0xbd038020	-0.03210461
101	0xbe036e5e	-0.1283507
102	0xbdc2ea5a	-0.09517355
103	0x3e152f75	0.14568885
104	0x3d931a34	0.07182732
105	0xbe3585f7	-0.17726885
106	0xbd92b32b	-0.0716308
107	0x3da935ba	0.08262201
108	0x3cecdb3b	0.028913131
109	0xbd320161	-0.043458346
110	0x3da08a92	0.0783893
111	0x3d8a9195	0.06766049
112	0x3da0ea94	0.07857242
113	0xbe23fd19	-0.16014518
114	0x3d88f7ea	0.06687911
115	0x3d97a7e2	0.07405068
116	0x3e6568b5	0.22403224
117	0x3c80366a	0.015650947
118	0x3dbcf8dd	0.092271544
119	0x3e31ea84	0.17374617
120	0x3e101ac0	0.14072704
121	0xbda5f940	-0.08104181
122	0x3c5735ba	0.013135368
123	0x3e385971	0.18002869
124	0xbe12e176	-0.14343819
125	0xbe214604	-0.15749365
126	0xbe2ba517	-0.16762196
127	0xbe5787f2	-0.21047953
128	0x3d951b6f	0.07280623
129	0xbda175e5	-0.07883815
130	0x3e30e1d9	0.17273654
131	0xbd3ae843	-0.04563166
132	0x3df727d7	0.12068146
133	0xbd62539d	-0.05525552
134	0x3e40ffca	0.18847576
135	0xbcfe8373	-0.03106854
136	0xbe0f2690	-0.13979554
137	0x3e5067e2	0.20352128
138	0xbcb2c0c3	-0.021820432
139	0x3cc1ce6b	0.023657998
140	0x3e58f49c	0.21187061
141	0xbd775462	-0.060383208
142	0x3e2571bc	0.16156667
143	0xbc14a821	-0.009073288
144	0x3e7b8fd4	0.24566585
145	0xbced0ce6	-0.028936815
146	0x3de073b6	0.1095957
147	0xbe1e17b0	-0.15438724
148	0xbd805132	-0.06265487
149	0x3dc58085	0.09643654
150	0xbe0478c0	-0.12936687
151	0x3e410673	0.18850116
152	0xbe2168d4	-0.15762645
153	0xbdf1375e	-0.117781386
154	0xbd0b4605	-0.034002323
155	0xbda24115	-0.0792257
156	0xbe1d8a2e	-0.15384743
157	0x3e0e9396	0.13923487
158	0xbd6275d7	-0.055288162
159	0x3dc6d928	0.09709388
160	0xbdef3eb0	-0.116818786
161	0xbe23bc34	-0.15989763
162	0x3cec1d20	0.028822482
163	0x3e1c666c	0.15273446
164	0x3e40faf9	0.18845738
165	0x3dbfcd54	0.09365335
166	0xbd8188e8	-0.06324941
167	0xbdd7afe6	-0.10531597
168	0xbe067f4c	-0.13134497
169	0xbe0e2c35	-0.13884051
170	0xbe4bb74c	-0.19894141
171	0x3de40807	0.111343436
172	0x3e4a9bc3	0.19785981
173	0x3d659404	0.05604936
174	0xbe5d20ba	-0.21594515
175	0x3de43566	0.111429974
176	0xbd800a6e	-0.06251989
177	0xbd98e518	-0.07465571
178	0x3b8785c2	0.004135818
179	0xbe1d6d95	-0.15373833
180	0x3dcce2e7	0.10004216
181	0xbdcd275b	-0.10017272
182	0x3c7de8aa	0.015497366
183	0x3dd1490e	0.10219012
184	0xbe455ccc	-0.1927368
185	0x3c52d858	0.012868963
186	0x3e047061	0.12933494
187	0x3e5d4838	0.2160958
188	0x3de17dd2	0.110103264
189	0xba76ded4	-0.0009417359
190	0x3e1655c3	0.14681153
191	0xbdcc6db8	-0.09981865
192	0x3e28acd7	0.16472183
193	0xbdd18d5e	-0.10232042
194	0x3e0a7a76	0.13523278
195	0x3dd6b332	0.104833975
196	0xbdf41e31	-0.11919821
197	0x3e0339b3	0.1281498
198	0xbe196da1	-0.14983226
199	0xbe894c8a	-0.26816207
200	0xbd3dcddd	-0.046338905
201	0xbe204d55	-0.156545
202	0x3d05d897	0.03267726
203	0x3e03f34f	0.12885784
204	0x3df8dcc9	0.121514864
205	0x3c3b1ecd	0.011420918
206	0x3d8f877c	0.070082635
207	0x3e60750f	0.21919654
208	0xbd8a981d	-0.067672946
209	0xbced518d	-0.02896955
210	0xbe420138	-0.18945777
211	0xbca35000	-0.019935608
212	0x3d680217	0.056642618
213	0xbe276e73	-0.16350727
214	0xbe56b78b	-0.20968454
215	0x3e301c2d	0.17198248
216	0xbe0e9bc4	-0.13926607
217	0x3d91fd96	0.07128446
218	0x3e3ac30e	0.1823847
219	0xbe896020	-0.2683115
220	0x3e09d676	0.13460717
221	0x3becdb57	0.007228296
222	0xbdbffcb6	-0.09374373
223	0x3dd9e00e	0.10638438
224	0xbdf66cf4	-0.120325
225	0x3d774184	0.060365215
226	0xbe21d108	-0.15802395
227	0x3d957123	0.0729697
228	0xbe73d5a2	-0.23811963
229	0x3ddeb3ae	0.10874115
230	0xbd9b04a9	-0.07569248
231	0x3e3c906e	0.1841447
232	0xbe067f17	-0.13134418
233	0x3d992eb2	0.074796095
234	0xbd374232	-0.044740863
235	0xbd0b136f	-0.03395408
236	0xbd50be8f	-0.05096298
237	0xbe93e6bd	-0.28886977
238	0xbd4b4a5e	-0.04963147
239	0x3e25db5e	0.16196963
240	0xbe27ad73	-0.1637476
241	0x3c22f43e	0.009945927
242	0x3e169c20	0.14707994
243	0x3d95ce1c	0.07314703
244	0x3e0a6866	0.13516387
245	0xbe2e1e61	-0.17003776
246	0x3da8c12f	0.08239972
247	0xbc8e60a1	-0.01738006
248	0xbdc1700f	-0.094452016
249	0x3d7da23d	0.0619223
250	0x3dd5c951	0.10438789
251	0xbd2139b8	-0.039361686
252	0x3dbe0f2b	0.09280237
253	0x3cd8d342	0.026467923
254	0xbdf0e8e5	-0.11763171
255	0x3d8f353a	0.06992574

weight f4 [256, 512]
0	0x3d96f0f2	0.073701754
1	0xb8619f5a	-5.3792588e-05
2	0xbd1bd467	-0.03804436
3	0x3cd792be	0.02631509
4	0xbd16b85e	-0.03679692
5	0x3bb4e822	0.0055208365
6	0x3c8b0c31	0.016973587
7	0xbaca3f16	-0.0015430178
8	0x3c1901aa	0.009338776
9	0x3d7b1be9	0.061305914
10	0x3c612546	0.013741797
11	0xbb191d64	-0.0023363465
12	0xbc824a86	-0.015904676
13	0xbca46207	-0.020066274
14	0x3cae15a3	0.021250552
15	0xbd2d95fe	-0.04237937
16	0xbb1804f1	-0.0023196305
17	0x3cf85682	0.030314688
18	0x3d3197c1	0.043357614
19	0x3b10c823	0.0022091947
20	0xbbc0812d	-0.005874774
21	0x3c2cdaec	0.010550242
22	0xbcf1162c	-0.029429518
23	0xbcbddd8f	-0.023176936
24	0x3d2681b7	0.04065105
25	0xbd4e1382	-0.050311573
26	0xbc895b98	-0.016767308
27	0xbcc8cdcf	-0.0245122
28	0xbd31ecd9	-0.043438766
29	0xbc9eec3f	-0.01939976
30	0x3cd4d6a7	0.02598126
31	0xbcb16832	-0.02165613
32	0xbd010faf	-0.031509098
33	0x3c78c768	0.015184261
34	0x3d396878	0.045265645
35	0x3c83b233	0.016076183
36	0x3d3e179b	0.04640923
37	0x3b330c12	0.0027320427
38	0xbd76ee84	-0.06028606
39	0x38c842ae	9.549163e-05
40	0x3d141f34	0.03616257
41	0x3ca1af81	0.019737007
42	0x3cbce490	0.023058206
43	0x3cb2be7f	0.021819351
44	0x3c594b6a	0.013262609
45	0x3b9269f3	0.0044681965
46	0x3ce49765	0.027904222
47	0xbcb07bfe	-0.0215435
48	0xbd138ced	-0.03602307
49	0x3c4f2f4e	0.012645556
50	0xbc1ddfa6	-0.0096358415
51	0x3ca51340	0.02015078
52	0x3d38a87c	0.045082554
53	0x3c3ef10c	0.01165415
54	0xba56adb6	-0.0008189337
55	0x3baeac30	0.005330585
56	0xbd477962	-0.048699744
57	0x3d190c62	0.037365325
58	0xbaa21fc6	-0.0012369088
59	0x3c87de24	0.016585417
60	0xbd2ddfd7	-0.0424498
61	0xbcfb25a6	-0.0306576
62	0x3c016322	0.00789717
63	0xbce53ca3	-0.027983015
64	0xbd0912cb	-0.033465188
65	0x3bdf16bf	0.0068081315
66	0xbd5bb2d6	-0.053637348
67	0xbd0b946e	-0.0340771
68	0xbca27704	-0.019832142
69	0xbb22a652	-0.0024818373
70	0x3cef2f37	0.029197318
71	0xbc82c134	-0.015961267
72	0xbad1452c	-0.0015966049
73	0xbce28868	-0.027652934
74	0xbd3c38cf	-0.045952614
75	0x3cb56e39	0.022147285
76	0x3c6324c6	0.013863748
77	0x3c82338c	0.01589372
78	0xbc24f365	-0.010067795
79	0xbcb4a86c	-0.022052966
80	0xbc41381c	-0.011793163
81	0x3d053a55	0.032526333
82	0x3d3b2a48	0.04569462
83	0xbce0c4be	-0.027437564
84	0xbbbe9a96	-0.005816768
85	0x3c8875fb	0.01665782
86	0x3b725bf4	0.0036981078
87	0x3cad0751	0.021121653
88	0x3c4b194a	0.012396166
89	0x3cae0b99	0.021245765
90	0x3bccff24	0.006256001
91	0x3bd9acd0	0.0066429153
92	0xbc8b2dd6	-0.01698963
93	0xbc88f3f9	-0.016717898
94	0xbbc2a9dc	-0.005940659
95	0xbd20d097	-0.039261427
96	0x3bcac9eb	0.0061886213
97	0xbbb15b8c	-0.0054125246
98	0xbc04d3dd	-0.008107153
99	0x3d66b259	0.05632243
100	0xbd1cf220	-0.038316846
101	0x3bd1e196	0.006405066
102	0x3d0997c4	0.033592
103	0xbd653ffe	-0.05596923
104	0x3c7c1e70	0.015388116
105	0x3cf9a7e8	0.030475572
106	0x3d4be848	0.049782068
107	0x3cb0b94d	0.021572733
108	0xbd34d824	-0.04415144
109	0x3c05041f	0.008118658
110	0xba18a3da	-0.00058227556
111	0x3d13620d	0.03598218
112	0x3ca055fc	0.01957225
113	0xbd2e40d3	-0.04254229
114	0x3d4d27a2	0.050086625
115	0x3cfb027b	0.030640831
116	0xbd316340	-0.043307543
117	0x3bae0b44	0.0053114016
118	0xbc4a98bd	-0.012365517
119	0xbca8c544	-0.020601876
120	0x3c70b5a4	0.014691744
121	0xbd221bd4	-0.03957732
122	0x3c33437f	0.010941385
123	0xbc3c9203	-0.011509421
124	0xbbe64528	-0.007027287
125	0x3c505e04	0.012717728
126	0x399f5a95	0.00030394332
127	0xbb92a381	-0.0044750576
128	0xbd2b8aa8	-0.04188028
129	0xbc92a071	-0.01789877
130	0x3ca01ddf	0.019545494
131	0x3bd1c383	0.0064014806
132	0x3b06f1da	0.0020590932
133	0x3c831920	0.016003191
134	0xbd0881d3	-0.033326935
135	0xbcbf43ff	-0.023347853
136	0x3d2530c4	0.04032971
137	0xbcf4d98c	-0.02988889
138	0x3d09677b	0.033545952
139	0xbc871e89	-0.016494052
140	0x3c39da52	0.0113435555
141	0x3bb96041	0.0056572263
142	0x3b11a611	0.0022224227
143	0xbd2a543d	-0.041584242
144	0xbc298af8	-0.010348074
145	0xbcd74fcf	-0.026283173
146	0xbc81ff26	-0.015868735
147	0xbc1aba7e	-0.009443877
148	0xbcc9092c	-0.024540506
149	0xbcf0e6d2	-0.029406939
150	0x3d71d811	0.059043948
151	0x3d0e3701	0.034720425
152	0x3bd0141f	0.006350055
153	0xbd81a975	-0.063311495
154	0x3cdd8c8c	0.027044557
155	0xbd002f1f	-0.03129494
156	0xbd00375d	-0.0313028
157	0x3c858c17	0.016302152
158	0x3d84ad3b	0.064783536
159	0xbc8ddfaf	-0.017318575
160	0xbd0d2159	-0.03445563
161	0x3d0c44e0	0.03424537
162	0x3d1ffca2	0.03905929
163	0x3c412538	0.011788659
164	0x3baa1c42	0.005191357
165	0x3dad129a	0.084508136
166	0xbcb721e3	-0.022355026
167	0xbc75c218	-0.014999889
168	0xbc5b901f	-0.01340106
169	0xbd34d4d7	-0.044148292
170	0x3c72a0fd	0.01480889
171	0x3d622e30	0.05521983
172	0x3cb6de17	0.022322698
173	0x3b8c7e6d	0.004287532
174	0xbc677b75	-0.014128556
175	0xbd25e952	-0.040505715
176	0xbd228459	-0.039676998
177	0xbce39a08	-0.027783409
178	0x3c7adf19	0.01531198
179	0xbd0dcb86	-0.034617923
180	0x3cde112e	0.027107801
181	0xbc99949b	-0.018747618
182	0x3d064b07	0.032786395
183	0xbd773dae	-0.060361557
184	0xbc08c984	-0.008348826
185	0xbd19ffdc	-0.037597522
186	0xbc5006cb	-0.012696932
187	0x3cc7ae01	0.024374964
188	0x3d607f01	0.05480862
189	0xbd3dcc63	-0.046337496
190	0xbda09170	-0.0784024
191	0x3d1d9434	0.038471416
192	0xbd23254a	-0.039830483
193	0x3cf30b1e	0.029668387
194	0xbcc9b694	-0.024623193
195	0x3cc470f9	0.02397965
196	0x3d17e023	0.037078988
197	0xbbbf356d	-0.0058352263
198	0x3c490ef5	0.012271632
199	0xbd5ace6c	-0.053419515
200	0xbc908de7	-0.01764579
201	0xbc80ee36	-0.015738588
202	0xbcb82672	-0.02247927
203	0xbce692e9	-0.028146224
204	0x3b5d5364	0.0033771629
205	0x3ce7b222	0.028283183
206	0x3d1ccbf5	0.038280446
207	0x3c8ec0a4	0.017425843
208	0xbcf8c0fb	-0.030365458
209	0xbd2992a5	-0.041399617
210	0x39ec1110	0.0004502614
211	0xbaf924e5	-0.0019008188
212	0x3cddbcaf	0.02706751
213	0x3c7ed351	0.015553311
214	0xbd4849e5	-0.048898596
215	0xbd255b40	-0.040370226
216	0x3c89931c	0.01679378
217	0xbc8572f5	-0.016290167
218	0x3c720979	0.014772766
219	0xb9c00d64	-0.0003663107
220	0x3b1e9d90	0.0024202801
221	0xbd746443	-0.05966593
222	0x3d4b1fd9	0.04959092
223	0x3c6afc74	0.014342416
224	0x3b8e1f14	0.004337201
225	0x39c592ba	0.00037684088
226	0xbcd3d741	-0.025859477
227	0xbc00e7c4	-0.007867757
228	0xbc40fadb	-0.011778559
229	0xbd073c84	-0.033016697
230	0x3cb1b3fd	0.02169227
231	0x3c8bd1c1	0.017067792
232	0xbd0a3ab5	-0.033747394
233	0x3d4ee338	0.05050966
234	0xbd01fe89	-0.031736884
235	0xbd04e388	-0.032443553
236	0x3c973901	0.018459799
237	0x3d373bcc	0.04473476
238	0xbd04ea83	-0.03245021
239	0xbdad258f	-0.08454429
240	0x3c81a498	0.015825555
241	0x3d1b0885	0.03784992
242	0x3cca3afd	0.02468633
243	0x3c58218b	0.013191591
244	0x3bb1481c	0.0054102074
245	0xbcdbb2f3	-0.026818728
246	0x3d231965	0.03981914
247	0x3c1914dd	0.009343353
248	0xbd3133f6	-0.043262444
249	0x3c9df1c2	0.019280318
250	0x3be4eda7	0.006986338
251	0x3c92c9cf	0.017918495
252	0x3d13df42	0.036101587
253	0x3cc4da8e	0.024029996
254	0x3c3ba1d8	0.011452161
255	0x3d31788f	0.043327864

bias f4 [256]
0	0x3d1328f4	0.035927728
1	0x3d0fb9aa	0.035089172
2	0x3c87f2fb	0.016595354
3	0x3d1500f5	0.036377866
4	0xbceeb245	-0.02913774
5	0x3d40f73e	0.04711079
6	0xbc9173ae	-0.017755356
7	0x3d14ada4	0.03629841
8	0x3d1641e0	0.036683917
9	0x3c68baa6	0.014204657
10	0x3c819ee6	0.015822839
11	0xba03ca6d	-0.0005027417
12	0xbbbf24ad	-0.0058332295
13	0xbc3d0b35	-0.0115383165
14	0xbb83e610	-0.0040252283
15	0x3cedfb0a	0.029050369
16	0x3d074822	0.033027776
17	0xbcb4e246	-0.022080552
18	0x3c6dcebc	0.014514621
19	0xbcd6ed1e	-0.026236113
20	0x3d22fd0a	0.039792098
21	0xbcd268bf	-0.025684712
22	0xbb1cbd41	-0.0023916515
23	0x3d6b96b2	0.05751676
24	0x3c9fc747	0.019504203
25	0x3d03df6b	0.03219549
26	0xbb5f801e	-0.0034103463
27	0x3cc4fda3	0.024046725
28	0xbcb0fc73	-0.021604752
29	0x3d307374	0.043078855
30	0xbcb3f806	-0.021968853
31	0x3cb9eb1c	0.022695117
32	0x3c9b385e	0.018947776
33	0x3d175978	0.03695056
34	0x3ccf183c	0.02528011
35	0x3d25bcf1	0.04046339
36	0x3cdd307e	0.027000662
37	0xbb7213de	-0.0036938111
38	0xbba60881	-0.0050669317
39	0x3bdd1e66	0.0067480085
40	0xbccda3be	-0.025102492
41	0xbc7a1787	-0.015264398
42	0xbccdf722	-0.025142256
43	0xbcbcccb5	-0.02304683
44	0x3cfc5127	0.030800415
45	0x3c4ce884	0.012506608
46	0x3d1b1f3d	0.037871588
47	0x3ce049f7	0.02737902
48	0xbcb10cd6	-0.021612566
49	0x3d108caa	0.035290398
50	0x3d261149	0.04054383
51	0xbc8a088b	-0.016849777
52	0x3ccf2e87	0.02529074
53	0x3d1e3ec8	0.03863409
54	0x3d6d69d2	0.057962246
55	0x3c47d9b4	0.012197901
56	0x3c8137a1	0.015773596
57	0x3c88ba84	0.0166905
58	0xbce154f2	-0.027506325
59	0x3d30dce0	0.043179393
60	0xbba32ed6	-0.0049799485
61	0xbaad2f0e	-0.0013212876
62	0x3d3802ae	0.04492443
63	0xbc28189d	-0.0102597745
64	0x3d244ed2	0.04011423
65	0xbc0347f5	-0.008012761
66	0x3d2165d1	0.03940374
67	0x3b89f218	0.004209768
68	0x3d04d9e9	0.032434378
69	0x3d21949d	0.03944837
70	0xbcd593e8	-0.026071504
71	0xbcbf366d	-0.023341382
72	0x3ce73381	0.028222801
73	0xbc85beb3	-0.016326284
74	0x3d550317	0.0520049
75	0x3d177674	0.0369782
76	0x3c0f2212	0.00873615
77	0xbc7533d5	-0.014965971
78	0x3c772c25	0.0150862085
79	0x3cb3c92c	0.021946512
80	0x3a82b793	0.0009972922
81	0x3d1af68c	0.03783278
82	0xbd226866	-0.039650343
83	0x3ca66b91	0.020314964
84	0xbacc8619	-0.0015603929
85	0x3d28b9c0	0.04119277
86	0xbcdc8f04	-0.026923664
87	0x3d35ec52	0.044414826
88	0x3ca06d9b	0.019583514
89	0x3c9cc4e0	0.019136846
90	0xbcb10e93	-0.021613395
91	0x3d0706a7	0.03296533
92	0x3ca5061a	0.020144511
93	0x3d0ec4c4	0.03485562
94	0x3d230885	0.039803047
95	0xbcd501e9	-0.026001887
96	0x3cab4ee2	0.020911638
97	0x3b352754	0.002764185
98	0x3d21cc89	0.0395017
99	0x3d03e83d	0.0322039
100	0x3d006b59	0.031352375
101	0x3b806d8d	0.0039193095
102	0x3d0dd0ce	0.03462296
103	0x3d093753	0.033500027
104	0xbc8ec632	-0.017428491
105	0x3be3aad6	0.0069478555
106	0xbcf2cbbd	-0.029638166
107	0x3cd6376b	0.026149472
108	0x3c8f81d5	0.017517963
109	0x3d21209f	0.03933775
110	0xbcd2beb2	-0.025725696
111	0x3d25f9dc	0.040521488
112	0x3baaed56	0.005216281
113	0x3cecde48	0.028914586
114	0x3d42e4ef	0.04758161
115	0x3c735bf2	0.014853464
116	0x3d3394e7	0.043843176
117	0x3d07bd25	0.033139367
118	0xbcb535a4	-0.022120304
119	0x3ca7bb9e	0.020475205
120	0xbcae01fb	-0.021241179
121	0xbbbdee1d	-0.0057962076
122	0xbc941938	-0.018078431
123	0x3cfda3a8	0.030961826
124	0xbc3cb5cc	-0.011517953
125	0x3ccf4c84	0.02530504
126	0xbc458470	-0.012055501
127	0x3ca54f30	0.020179361
128	0x3d4fd7a1	0.05074275
129	0xbc1af4e2	-0.009457799
130	0xbca2678b	-0.019824764
131	0xbc866aee	-0.01640841
132	0xbd18ac6d	-0.037273813
133	0xbcd254f5	-0.025675276
134	0xbc15b8b1	-0.009138272
135	0xbc6a8c29	-0.014315643
136	0xbcd8d2ad	-0.026467646
137	0x3d194605	0.03742029
138	0xbc9ba82d	-0.01900109
139	0x3a512502	0.0007978232
140	0x3cef9e4e	0.02925029
141	0x3c379fd7	0.011207542
142	0x3d0d54a0	0.034504533
143	0xbc0432a4	-0.008068714
144	0x3c87d0ae	0.016578998
145	0xbd00654e	-0.03134661
146	0x3ce72c25	0.028219292
147	0x3c876ac2	0.016530398
148	0x3c627b92	0.013823407
149	0x3b0a3431	0.0021088237
150	0x3d1ffaf3	0.039057683
151	0xbced7b3b	-0.028989425
152	0x3d0c7be9	0.034297857
153	0x3ce6cd9a	0.02817421
154	0x3d36f5c8	0.04466799
155	0x3c954833	0.018222904
156	0xbcdcf9f4	-0.026974656
157	0x3c58dbb6	0.013235977
158	0xbcaaee5a	-0.020865608
159	0x3c33d3e6	0.0109758135
160	0xbcb20014	-0.021728553
161	0xbccfa790	-0.025348455
162	0x3c984226	0.01858623
163	0xbc870941	-0.016483905
164	0x3c9a3c05	0.018827448
165	0x3d1834d6	0.037159763
166	0x3d514157	0.051087704
167	0xbc1e886a	-0.009676078
168	0x3a95e465	0.0011435865
169	0x3cc44e28	0.023963049
170	0x3d38ce81	0.045118812
171	0x3cb32bcd	0.021871472
172	0x3d119713	0.035544466
173	0xbc7b10ca	-0.015323827
174	0xbd071252	-0.032976456
175	0xbd142779	-0.036170457
176	0x3c87ae3d	0.016562575
177	0x3d37eaa0	0.04490149
178	0x3d0146d3	0.031561684
179	0x3cbd1206	0.023079883
180	0x3c41a7dd	0.011819807
181	0x3d4e2e85	0.050337333
182	0xbd135421	-0.035968903
183	0xbaf003a4	-0.0018311632
184	0x3d1d1369	0.03834859
185	0x3d28d2f9	0.041216824
186	0x3cea199f	0.02857667
187	0x3b8943ce	0.004188991
188	0x3d713778	0.05889079
189	0xbace296c	-0.0015728897
190	0x3d52c205	0.051454563
191	0xbaf3d36c	-0.0018602437
192	0xbd06b108	-0.032883674
193	0xbc845856	-0.016155403
194	0x3ba56893	0.0050478666
195	0x3d24fdf7	0.040281262
196	0x3d521e61	0.051298503
197	0xbc1c8017	-0.009552023
198	0x3cb55ee5	0.022139976
199	0xbcd3e42e	-0.02586564
200	0x3d48710f	0.048935946
201	0x3c8e32fc	0.017358296
202	0x3d197194	0.037461832
203	0x3b5a0bd0	0.00332712
204	0xbbdb3255	-0.0066893497
205	0x3d303304	0.043017402
206	0x3d3dcabf	0.046335932
207	0x3d13e6a2	0.03610862
208	0xbced44e9	-0.028963523
209	0x3be01b8c	0.0068392213
210	0x3c1cda8e	0.009573592
211	0x3d13b314	0.036059454
212	0xbd0b2d2f	-0.033978637
213	0xbaf05175	-0.0018334823
214	0x3d0ccbb0	0.03437394
215	0xbcb05648	-0.021525517
216	0xbc41b353	-0.011822539
217	0x3c86ccf5	0.016455153
218	0xbd0ce519	-0.034398172
219	0xbb5d781c	-0.0033793515
220	0x3d05fdd2	0.032712765
221	0xbc35b13c	-0.011089619
222	0xbcc148c4	-0.023594268
223	0xbd4c001a	-0.049804784
224	0xbd0739de	-0.03301417
225	0xbbc61a49	-0.006045614
226	0x3ad5de88	0.001631693
227	0x3d28b3ee	0.04118722
228	0x3c4943d6	0.01228424
229	0x3d223682	0.039602764
230	0xbc95dc78	-0.018293604
231	0xbd033c37	-0.032039847
232	0x3cbfe92b	0.023426613
233	0x3c153acc	0.009108257
234	0xbc8011df	-0.015633522
235	0x3ceadcca	0.028669734
236	0xbb8b0241	-0.004242212
237	0xbce5a86f	-0.028034417
238	0xbcf8cabc	-0.030370109
239	0x3c91e788	0.017810598
240	0x3d5560b7	0.052094188
241	0x3c910c79	0.017706143
242	0xbc99c26f	-0.018769471
243	0x3c70862c	0.014680427
244	0x3d3d69e8	0.04624358
245	0x3cc7f01f	0.02440649
246	0xbcef1757	-0.029185934
247	0x3d15b624	0.036550656
248	0x3cfb3f55	0.030669848
249	0x3d6c96ae	0.057760887
250	0x3b42bdab	0.0029715102
251	0x3c518f88	0.012790568
252	0x3cf48f02	0.029853348
253	0x3a82d6a6	0.0009982183
254	0xbcbd3f42	-0.023101453
255	0xbbc3e69e	-0.0059784194

weight f4 [128, 256]
0	0xbcb2557c	-0.021769278
1	0x3c5e20aa	0.013557592
2	0x3d8343cb	0.06409415
3	0xbc9c40d4	-0.019073881
4	0x3d14462d	0.036199737
5	0x3d9aca2f	0.07558095
6	0xbdae0c2a	-0.08498414
7	0x3d53372f	0.0515663
8	0xbd1e5468	-0.038654715
9	0xbd09c1d5	-0.03363212
10	0x3d28df63	0.041228663
11	0x3d4d7d23	0.050168168
12	0x3cdb16c3	0.026744252
13	0x3cb5090c	0.02209904
14	0xbc941a53	-0.018078959
15	0xbd388b7c	-0.045054898
16	0x3d695119	0.056962106
17	0x3a366319	0.0006957516
18	0x3d36b862	0.044609435
19	0xbca5f68b	-0.020259162
20	0x3d97a16f	0.07403838
21	0x3b9af899	0.004729342
22	0xbc3882dd	-0.011261669
23	0xb825569f	-3.9419738e-05
24	0xbd8cec9a	-0.06881066
25	0xbce7e712	-0.028308425
26	0x3cd15f1d	0.025558049
27	0x3ca5ba7c	0.020230524
28	0x3d1c12b7	0.038103785
29	0x3d47a6a6	0.048742913
30	0x3abe377f	0.0014512389
31	0xbc38be20	-0.011275798
32	0xbc39345d	-0.011303988
33	0xbbee1527	-0.007265705
34	0xbd5284e0	-0.05139625
35	0x3c86e7d0	0.016467959
36	0x3d96d399	0.07364578
37	0xbd740cdd	-0.05958258
38	0x3ca1902e	0.01972207
39	0xbd722d58	-0.059125274
40	0x3d768791	0.06018788
41	0xbdba943e	-0.09110306
42	0x3cd3c345	0.025849948
43	0x3ce50cc8	0.027960196
44	0xbd8b21bd	-0.067935444
45	0xbd174ac8	-0.03693655
46	0xbbda4935	-0.006661559
47	0x3d649a2e	0.0558111
48	0x3d4a1707	0.049338367
49	0xbd51f822	-0.05126203
50	0xbd4785b6	-0.0487115
51	0xbb833662	-0.0040042857
52	0x3ca0b1ef	0.019616095
53	0xbcb521e1	-0.022110881
54	0x3d8844fc	0.06653783
55	0xbd8601ed	-0.06543336
56	0x3d919219	0.07107944
57	0x3d118475	0.03552671
58	0xbc1dbe50	-0.009627894
59	0x3bee1b3a	0.0072664293
60	0x3b8fdf82	0.004390658
61	0x3c880566	0.016604137
62	0x3ca579e7	0.02019973
63	0xbd116be2	-0.035503276
64	0x3c941690	0.018077165
65	0xbcd90402	-0.026491169
66	0x3d784789	0.060615096
67	0x3d550745	0.052008886
68	0x3c4702bd	0.012146649
69	0x3d56dccc	0.052456662
70	0xbd6763a6	-0.056491517
71	0x3bce8541	0.006302506
72	0x3d63ad93	0.055585455
73	0x3c863238	0.016381368
74	0xbd46e906	-0.048562072
75	0xbbfabb06	-0.0076516895
76	0x3ce49506	0.027903091
77	0xbce43269	-0.027856069
78	0xbcffd45c	-0.03122919
79	0x3bdc3a09	0.0067207855
80	0x3d5528bb	0.052040797
81	0x3d871022	0.06594874
82	0x3d8f19f8	0.06987375
83	0xbc6bd4c7	-0.014393992
84	0x3d38892e	0.0450527
85	0x3c771205	0.01507998
86	0xbd9c2ec6	-0.07626109
87	0x39e94b95	0.00044497536
88	0x3d271e61	0.040800456
89	0xbd2e0dbb	-0.042493563
90	0xbcc14d1c	-0.023596339
91	0x3d8383f5	0.06421653
92	0x3cc8b274	0.024499156
93	0x3d947483	0.07248785
94	0x3bc34292	0.0059588635
95	0x3a4d0ff1	0.0007822505
96	0xbd2ea61d	-0.042638887
97	0xbd233535	-0.039845664
98	0xbc68c465	-0.01420698
99	0x3d88dcc2	0.06682731
100	0x3d7289a4	0.059213296
101	0xbd11b3f9	-0.035572026
102	0x3d048533	0.03235359
103	0x3da94b8f	0.08266365
104	0xbdc798ca	-0.09745939
105	0x3d927b50	0.07152426
106	0x3cb0117b	0.02149271
107	0x3ce2f7e1	0.027706088
108	0x3d232657	0.039831486
109	0x3bc465a9	0.005993564
110	0xbca2e6f6	-0.019885521
111	0x3cd6c1cb	0.026215455
112	0xbd82f154	-0.06393686
113	0xbc32f922	-0.010923656
114	0x3c807f40	0.015685678
115	0xbc185c23	-0.009299311
116	0xbbcd0a1e	-0.0062573096
117	0x3d914c0b	0.07094582
118	0x3d822e8d	0.06356535
119	0x3c57c0d9	0.013168537
120	0xbd000432	-0.031254
121	0xbc43f9c0	-0.0119614005
122	0x3d177ca9	0.03698412
123	0x3c5f8682	0.013642909
124	0xbd8a6bc1	-0.06758834
125	0x3d0ff575	0.035146195
126	0x3d28231a	0.0410491
127	0xbd10ee5f	-0.03538358
128	0x3d7d955a	0.06191001
129	0xbda7befe	-0.08190726
130	0xbd2b73a1	-0.04185832
131	0x3d8df78f	0.06931984
132	0x3d65e800	0.056129456
133	0xbb7c6001	-0.0038509371
134	0x3dd934a9	0.10605747
135	0x3bf26fe8	0.007398594
136	0xbd0fc124	-0.035096303
137	0x3d8547f8	0.065078676
138	0xbc83ab7f	-0.016072987
139	0x3ccfe4e8	0.025377706
140	0xbd4c98f0	-0.04995054
141	0xbb93cb9f	-0.0045103575
142	0xbd517719	-0.05113897
143	0x3c87009b	0.01647978
144	0x3d1d3dbb	0.03838895
145	0xbc8dd99c	-0.017315678
146	0xbd2d4e18	-0.042310804
147	0xbc53597d	-0.012899754
148	0xbc31ce39	-0.01085239
149	0x3cff64ee	0.031176057
150	0xbd338b77	-0.043834176
151	0x3c3d10e7	0.011539674
152	0x3d1d57d7	0.03841385
153	0xbd29c961	-0.041451816
154	0xbc371026	-0.011173284
155	0x3d9054bc	0.07047412
156	0xbd14e6ac	-0.0363528
157	0xbd56c3d1	-0.05243284
158	0xbdc15742	-0.09440471
159	0xbd38a597	-0.045079794
160	0x3c305064	0.010761354
161	0x3d502885	0.050819892
162	0x3d8fff4e	0.070311174
163	0x3df1608d	0.11785994
164	0xbc84f460	-0.016229808
165	0x3d87bb0f	0.066274755
166	0xbd864719	-0.065565296
167	0xbcfcb746	-0.03084911
168	0xbd939d73	-0.072077654
169	0xbc3bbdf5	-0.0114588635
170	0x3c5399df	0.012915104
171	0x3cad1e24	0.021132536
172	0xbd60ba87	-0.054865386
173	0xbd07fdbf	-0.033200976
174	0x3dabe2d6	0.08392875
175	0x3c9f6e70	0.01946184
176	0x3d04ba4f	0.03240424
177	0x3d38b7f0	0.04509729
178	0x3c3a4930	0.011369988
179	0x3c9b9ee1	0.018996658
180	0x3c09e3a4	0.00841609
181	0x3dd797c8	0.10526997
182	0xbd3b0e84	-0.04566814
183	0xbab5297c	-0.0013821567
184	0xbc9ca1ad	-0.019120062
185	0x3d0b1a3a	0.03396056
186	0x3d23d097	0.03999385
187	0xbd7840ca	-0.060608663
188	0xbdab4c92	-0.08364214
189	0xbc00988e	-0.007848872
190	0x3cd5eb60	0.026113212
191	0x3c6b3413	0.014355677
192	0x3d67f77c	0.056632504
193	0x3ca91ac8	0.020642653
194	0xbc2d5189	-0.0105785215
195	0x3d2f04b4	0.042729095
196	0x3d82a1ad	0.063784935
197	0x3d77c8b4	0.06049414
198	0xbd7c97fa	-0.061668374
199	0x3d1fff7e	0.039062016
200	0xbb89f121	-0.004209653
201	0x3c96c998	0.018406674
202	0x3d1ce2dd	0.03830229
203	0x3dc81ea0	0.09771466
204	0xbd172956	-0.036904655
205	0x3d931038	0.07180828
206	0xbd3f3d73	-0.046689462
207	0xbd885dfb	-0.0665855
208	0xbd2999fa	-0.04140661
209	0x3c1971de	0.009365527
210	0x3ba89591	0.005144783
211	0x3ca30d83	0.019903904
212	0xbd635aa3	-0.05550636
213	0xbd7d835c	-0.061892852
214	0xbce66fa0	-0.028129399
215	0x3d83f6f0	0.06443584
216	0x3d26663e	0.04062485
217	0x3c47c076	0.012191882
218	0x3cf40432	0.029787157
219	0xbcae314a	-0.021263737
220	0xb7a310e9	-1.9438989e-05
221	0x3d7fef71	0.06248421
222	0xbc642a0b	-0.013926039
223	0xbc9024f8	-0.017595753
224	0xbd517c07	-0.051143672
225	0xbd0b88b8	-0.034065932
226	0xbd182a24	-0.037149563
227	0xbde4a5e0	-0.11164451
228	0xbcdb0efd	-0.026740545
229	0xbbe45c67	-0.006969023
230	0x3d413f17	0.047179308
231	0x3d9d5672	0.07682504
232	0xbb33e251	-0.0027448128
233	0x3d0c858e	0.034307055
234	0x3cea4612	0.028597865
235	0xbd3aa933	-0.045571517
236	0x3d12eb38	0.035868853
237	0xbc5590ce	-0.013035012
238	0x3d13220b	0.035921138
239	0xbc8d4b83	-0.01724792
240	0xbbde3d7f	-0.0067822332
241	0xbb62452c	-0.0034526093
242	0xbcd94f08	-0.026526943
243	0xbd9d78ad	-0.07689033
244	0xbcdefa55	-0.027218977
245	0xbc81a4a9	-0.015825586
246	0x3a95ee24	0.0011438769
247	0x3d4fbd4f	0.050717648
248	0x3da01cbc	0.07817981
249	0x3d8e4f99	0.06948776
250	0xbd9cbb1f	-0.07652878
251	0xbd877545	-0.06614164
252	0xbd52852c	-0.051396534
253	0xbd076c0f	-0.033062037
254	0xbbce3f0f	-0.0062941383
255	0x3bf6044b	0.007507836

bias f4 [128]
0	0xba6a7c58	-0.000894492
1	0x3d5facc9	0.05460814
2	0x3cea097d	0.028568977
3	0x3a588c99	0.0008260697
4	0x3d468e88	0.048475772
5	0x3d7ccdfb	0.061719876
6	0x3d1145b8	0.03546688
7	0xbcc6946c	-0.024240695
8	0xbd464091	-0.04840142
9	0x3d49e2c3	0.049288522
10	0x3d300c04	0.04298021
11	0xbd0de7de	-0.034644954
12	0xbcd39144	-0.025826104
13	0xbc96cb5c	-0.018407516
14	0xbd34ffc2	-0.044189222
15	0xbd599639	-0.05312178
16	0xbd33a9d7	-0.043863144
17	0xbc72789c	-0.014799263
18	0xbd5e0f83	-0.054214012
19	0xbd35ac87	-0.044353988
20	0x3cc9a84c	0.024616383
21	0xbd1786de	-0.036993854
22	0x3d86807a	0.06567474
23	0xbd2667d9	-0.04062638
24	0xbc938cc4	-0.018011458
25	0x3d5ca810	0.053871214
26	0x3d76a51c	0.060216054
27	0xbccf7012	-0.025321994
28	0xbd40711f	-0.04698288
29	0x3ce0731d	0.02739864
30	0xbbf1c21d	-0.0073778764
31	0xbd21ff84	-0.03955032
32	0x3cee5242	0.029091958
33	0xbd51446d	-0.051090647
34	0xbd49de02	-0.04928399
35	0x3d579e8b	0.052641433
36	0x3d6e7fc5	0.05822732
37	0x3d2d067c	0.042242512
38	0x3d33937f	0.043841835
39	0x3d0a8801	0.03382111
40	0xbd0c0285	-0.03418209
41	0x3d0c2faf	0.034225162
42	0x3d4eb98c	0.05046992
43	0x3c58d442	0.0132342
44	0x3bf755ef	0.007548086
45	0xbcfc3816	-0.030788463
46	0xbd153eac	-0.03643672
47	0x3d25e006	0.04049685
48	0x3ce2c879	0.027683483
49	0x3d7b57c1	0.061362986
50	0x3cf6f427	0.030145718
51	0xbd37759c	-0.044789895
52	0x3cbd662c	0.023120008
53	0xbd64b279	-0.055834267
54	0xbd2f1f58	-0.0427545
55	0x3ca62873	0.02028296
56	0xbd4bcc62	-0.04975546
57	0xbd2e71a0	-0.04258883
58	0x3ccc6870	0.024952143
59	0xbd75c584	-0.06000282
60	0x3b8b7d4d	0.0042568804
61	0xbd298056	-0.041382156
62	0x3d2e978a	0.042624988
63	0x3a1aa631	0.0005899398
64	0xbd5e303b	-0.054245215
65	0x3d72c7a6	0.05927243
66	0xbab06c13	-0.0013459943
67	0xbcd12185	-0.025528679
68	0xbd02b997	-0.031915274
69	0x3c871c75	0.016493062
70	0xbd4e87fe	-0.05042266
71	0x3ac0296f	0.0014660786
72	0x3d716123	0.058930527
73	0xbd558b38	-0.052134722
74	0x3d5687c3	0.052375566
75	0x3d56c063	0.052429568
76	0xbd67ec7a	-0.056622006
77	0x3d2136f5	0.03935905
78	0xbd3113ad	-0.043231655
79	0x3c8d1ff4	0.01722715
80	0x3d880a0e	0.06642543
81	0xbce2891e	-0.027653273
82	0x3ce490c1	0.027901055
83	0x3b9b182d	0.0047331066
84	0xbc9cc742	-0.019137982
85	0x3d2b3aaa	0.041803993
86	0xbbee8966	-0.0072795628
87	0x3d14e0e4	0.036347285
88	0xbbe6f6e4	-0.0070484746
89	0x3c0fcc8d	0.008776796
90	0x3c8a0f9a	0.016853143
91	0x3d29c667	0.041448977
92	0xbd84754c	-0.06467685
93	0x3bf77950	0.0075523034
94	0xbcbfb0a5	-0.02339966
95	0x3c1aca53	0.009447652
96	0xbca6f7dd	-0.020381862
97	0xbd188397	-0.03723487
98	0xbc062104	-0.0081865825
99	0x3d823fc3	0.06359818
100	0xbd3e1a09	-0.046411548
101	0xbccd4b2e	-0.025060263
102	0xbd5c6f14	-0.05381687
103	0xbd05a360	-0.03262651
104	0xbd4f6e04	-0.05064203
105	0xbd5b1c9d	-0.053494085
106	0x3d78af2d	0.060713936
107	0x3d6c4581	0.05768347
108	0xbc62fd56	-0.013854345
109	0x3c976d2a	0.01848467
110	0x3cc59240	0.024117589
111	0x3c91058a	0.017702837
112	0x3d0826a8	0.03323999
113	0xbcf1b26b	-0.029504022
114	0xbc47dde1	-0.012198896
115	0x3d14545c	0.036213264
116	0xbcbfa430	-0.02339372
117	0x3d85c58f	0.06531822
118	0xbb9bf915	-0.0047599175
119	0x3b30cc94	0.0026977407
120	0xbc6adeb8	-0.014335327
121	0x3c27cbb6	0.01024144
122	0x3c72a667	0.014810181
123	0xbb081b2d	-0.002076815
124	0xbd0195c3	-0.031636965
125	0x3d883ecf	0.06652605
126	0x3d41b6e9	0.047293577
127	0xbc8b80b3	-0.017029142

weight f4 [11, 128]
0	0xbdba2e9e	-0.09090923
1	0x3d54fc1e	0.05199825
2	0xbdd3258a	-0.103098944
3	0x3d6b9926	0.0575191
4	0x3d8f861b	0.070080005
5	0xbdba6375	-0.09101001
6	0xbc85efa6	-0.016349625
7	0xbc880f71	-0.016608926
8	0x3d750bba	0.059825636
9	0xbd54fdac	-0.051999733
10	0x3cf6c4cf	0.030123143
11	0xbda7ede0	-0.08199668
12	0x3d846053	0.06463685
13	0x3db62f9c	0.088957995
14	0xbd9cf306	-0.076635405
15	0xbcb581eb	-0.022156676
16	0xbce6eb7b	-0.028188458
17	0xbd86e0d3	-0.065858506
18	0xbc2b10b2	-0.010440992
19	0x3d8e95e7	0.06962185
20	0xbc1a28f2	-0.009409176
21	0x3d6a0796	0.05713614
22	0x3da0d7c8	0.07853657
23	0xbd762357	-0.060092296
24	0x3d73e0ee	0.05954068
25	0xbd44969f	-0.047995206
26	0xbdccad2b	-0.09993967
27	0x3d8f1e06	0.069881484
28	0xbd5b2b9a	-0.05350838
29	0xbd2c290e	-0.04203134
30	0xbd265433	-0.040607642
31	0x3d78d695	0.060751516
32	0xbc7537bc	-0.014966901
33	0xbdbca9b8	-0.09212059
34	0x3d130536	0.03589364
35	0xbc4a55df	-0.012349575
36	0x3cebc778	0.028781638
37	0xbc317249	-0.01083047
38	0xbb8188ac	-0.00395306
39	0x3cb937ae	0.022609558
40	0x3d0b863b	0.03406356
41	0x3cadbf24	0.021209307
42	0xbb8034e2	-0.003912554
43	0x3d67fcfc	0.05663775
44	0xbd0aa056	-0.033844315
45	0x3d730d4d	0.059338856
46	0xbdc1512b	-0.0943931
47	0xbbaf5314	-0.00535048
48	0x3d534fe9	0.05158988
49	0x3da4acc4	0.08040765
50	0x3d8185aa	0.063243225
51	0xbd976577	-0.073924
52	0xbd8b6fd7	-0.06808441
53	0xbd7a397c	-0.061089978
54	0x3d5a9490	0.053364336
55	0xbd13f1a4	-0.03611912
56	0xbce9160a	-0.028452892
57	0xbda990e0	-0.08279586
58	0x3d310bdd	0.043224204
59	0x3d0b52cc	0.034014508
60	0x3d2eb5f4	0.042653993
61	0x3d9483fe	0.07251738
62	0x3bb707de	0.0055856546
63	0x3d764b67	0.060130503
64	0xbd12372b	-0.035697144
65	0x3d860af7	0.0654506
66	0xbd991f76	-0.07476704
67	0x3da6ea78	0.0815019
68	0x3d6957b7	0.056968417
69	0x3b0ebd15	0.0021780182
70	0x3cff3636	0.03115378
71	0x3d8830b3	0.06649914
72	0xbd43981e	-0.047752492
73	0x3cabdf98	0.020980641
74	0xbd5c0b94	-0.05372198
75	0xbd2b583d	-0.041832197
76	0xbc876cc2	-0.016531352
77	0x3bcded86	0.0062844185
78	0x3c66d74a	0.014089415
79	0xbd030340	-0.03198552
80	0xbd71068c	-0.058844134
81	0x3d0f5a1e	0.03499805
82	0x3da50e83	0.080594085
83	0xbd803855	-0.062607445
84	0xbd9431e6	-0.0723608
85	0xbd82c86d	-0.063858844
86	0xb9823ce7	-0.00024840908
87	0x3ccf5543	0.02530921
88	0xbc05d35a	-0.008168066
89	0x3cc53462	0.02407283
90	0xbd2e07fe	-0.04248809
91	0xbd9c91b7	-0.076449804
92	0x3d7057b5	0.058677394
93	0xbdc35670	-0.09537971
94	0x3cf03dfb	0.02932643
95	0x3cf39723	0.029735154
96	0xbdb79eae	-0.089658126
97	0x3d8a48fa	0.067522004
98	0x3d9ee009	0.07757575
99	0x3c91aef2	0.017783616
100	0x3d812d28	0.06307441
101	0x3d8a7514	0.06760612
102	0xbcb03bcd	-0.02151289
103	0x3bff9cc4	0.0078006703
104	0xbd0d36f3	-0.03447623
105	0xbbe12c5f	-0.0068717445
106	0x3d25d984	0.040490642
107	0xbc803e8d	-0.015654827
108	0x3d89586f	0.067063205
109	0x3d9622f8	0.073308885
110	0xbd40bdbe	-0.047055952
111	0xbda20744	-0.07911542
112	0xbd17667c	-0.03696297
113	0xbd3ec120	-0.046570897
114	0xbd4df618	-0.05028352
115	0x3c817d2c	0.015806757
116	0xbd242b66	-0.04008045
117	0xbd2bd67a	-0.041952588
118	0x3d3b33ad	0.04570358
119	0xbd8d58c1	-0.06901694
120	0xbd7f7e6f	-0.062376436
121	0xbb83ae37	-0.0040185708
122	0xbbbfe160	-0.005855724
123	0x3da15a4d	0.07878552
124	0x3d407fba	0.04699681
125	0x3cb128db	0.021625927
126	0xbd50e3c1	-0.050998453
127	0x3c8e59c9	0.017376797
128	0x3c7b9467	0.015355206
129	0x3d83b6a5	0.06431321
130	0xbdcd694e	-0.10029851
131	0x3d76b3b9	0.06022999
132	0xbcb36565	-0.021898935
133	0x3dbd3860	0.09239268
134	0x3d0d8e0b	0.03455929
135	0x3ce436fb	0.027858248
136	0x3c621bab	0.013800542
137	0x3d9ebf8f	0.07751381
138	0x3d4126a8	0.047156006
139	0xbd82b0bc	-0.06381366
140	0x3c35c3f4	0.011094082
141	0x3d9e2f10	0.0772382
142	0xbd4f8b3d	-0.050669897
143	0xbdb67423	-0.0890887
144	0xbd6b973e	-0.057517283
145	0x3dd3c74b	0.103407465
146	0xbde5150b	-0.11185654
147	0xbd75b3ed	-0.059986044
148	0x3c71abbd	0.014750418
149	0x3bc8c7ca	0.0061273323
150	0x3dbc1ead	0.091855384
151	0xbc96b1f3	-0.0183954
152	0xbe033fed	-0.12817355
153	0x3d11622a	0.035494007
154	0x3d60d4cb	0.054890435
155	0x3db169fc	0.08662793
156	0xbdd376fc	-0.10325429
157	0x3d176474	0.036961034
158	0xbdeff258	-0.11716145
159	0x3bc5894c	0.00602833
160	0xbe117817	-0.14205967
161	0x3d8ffc05	0.07030491
162	0xbdbab849	-0.09117181
163	0x3d32f0cd	0.043686677
164	0x3d8a3b00	0.067495346
165	0xbe044b6f	-0.129194
166	0x3c7a1c59	0.015265548
167	0xbcdd121a	-0.02698617
168	0x3d0af603	0.03392602
169	0x3c4fb966	0.01267848
170	0x3cccff7c	0.025024168
171	0xbd6b2081	-0.057404045
172	0x3d0e1176	0.03468462
173	0xbd8348fe	-0.064104065
174	0xbdc28221	-0.09497476
175	0x3cda8be2	0.02667803
176	0x3d9596ce	0.07304154
177	0x3daf0d05	0.08547405
178	0x3d22f70e	0.03978639
179	0x3dcecd05	0.10097698
180	0xbd995cba	-0.07488389
181	0xbde09503	-0.10965922
182	0xbd2e1ce0	-0.042508006
183	0x39a329c3	0.00031120898
184	0x3d8a9c12	0.06768049
185	0x3cee5ea2	0.029097859
186	0xbc7b470f	-0.015336766
187	0x3d8bab2e	0.06819759
188	0x3cd07de3	0.025450652
189	0x3c05ace5	0.008158897
190	0xbd098c6f	-0.033581194
191	0x3db5eb60	0.08882785
192	0xbdfb98a6	-0.12284975
193	0x3d015f98	0.031585306
194	0x3d1a6027	0.037689354
195	0x3db40e3a	0.08791776
196	0x3d459b0f	0.04824358
197	0xbcd9e304	-0.026597507
198	0x3cd6e014	0.026229896
199	0xbdfe3027	-0.12411528
200	0xbbf3e287	-0.0074427756
201	0x3a8246eb	0.0009939348
202	0x3d77f850	0.060539544
203	0xbbc8543c	-0.006113557
204	0xbbaeee3b	-0.005338458
205	0x3da23653	0.07920518
206	0xbdb0763f	-0.08616304
207	0xbdd45c46	-0.10369162
208	0xba149f05	-0.0005669448
209	0xbda15a15	-0.0787851
210	0xbdc8aa7a	-0.09798141
211	0x3dcd6160	0.100283384
212	0xbd86b287	-0.0657702
213	0x3d60df39	0.05490038
214	0xbd98f10f	-0.07467853
215	0xbdac916b	-0.08426174
216	0xbdeaa7d0	-0.11457789
217	0x3d6b6c73	0.057476472
218	0xbbc7491d	-0.006081714
219	0xbdc01636	-0.093792364
220	0xbbc6a58a	-0.0060622143
221	0xbd3906aa	-0.04517237
222	0xbd0edb4d	-0.03487711
223	0x3cc0494f	0.023472456
224	0xbd2457bb	-0.04012273
225	0x3d912b35	0.07088319
226	0x3d0dec63	0.034649264
227	0x3d82a8f6	0.06379883
228	0x3cd12021	0.025528016
229	0xbde57742	-0.11204387
230	0xbd57e66e	-0.05270999
231	0x3d2929e6	0.041299723
232	0xbdcd1839	-0.10014386
233	0x3d82daf4	0.06389418
234	0xbdd0e5cf	-0.102000825
235	0x3d962a62	0.07332303
236	0x3ce80168	0.028320983
237	0xbda57948	-0.08079773
238	0x3ce8c8d2	0.028416071
239	0xbc974d8a	-0.01846959
240	0xbc9050a1	-0.017616572
241	0x3d068f63	0.032851588
242	0xbdb9194f	-0.0903803
243	0xbc9f2bd8	-0.019430086
244	0xbcd764bd	-0.026293153
245	0xbdc8f8d2	-0.09813084
246	0x3df950f6	0.12173645
247	0xbc6e7ceb	-0.01455615
248	0xbb523395	-0.0032074202
249	0xbd14cc7b	-0.03632782
250	0xbb5cf1b0	-0.0033713393
251	0xbd958805	-0.07301334
252	0x3dba2c93	0.09090533
253	0x3d23561e	0.03987705
254	0x3dc86781	0.09785367
255	0x3d9b5e49	0.07586343

bias f4 [11]
0	0xbd33b3f3	-0.043872785
1	0xbd8f270d	-0.0698987
2	0x3da51bfe	0.0806198
3	0xbd9148cf	-0.07093965
4	0x3c848712	0.016177688
5	0xbcdef565	-0.027216623
6	0x3c4db2de	0.012554852
7	0xbd248895	-0.040169317
8	0xbd389f50	-0.045073807
9	0xbd9a960d	-0.07548151
10	0x3d961c49	0.07329614
